app/src/main/assets/mnist_model.tflite (tflite, 903508 bytes, 8 tensors)

arith.constant f4 [64]
0	0xbd42d286	-0.047564052
1	0xbdd40d70	-0.103541255
2	0xbcb5c4e5	-0.022188613
3	0xbe06cb49	-0.13163485
4	0xbd17f145	-0.037095327
5	0xbe45b866	-0.19308624
6	0xbca41cba	-0.02003323
7	0xbe5706cb	-0.20998685
8	0x3d7798c3	0.06044842
9	0xbe10c452	-0.1413739
10	0xbd877017	-0.06613176
11	0xbe5cc41d	-0.21559186
12	0xbd9378bd	-0.072007634
13	0xbe06c5db	-0.13161413
14	0xbcbafb14	-0.022824802
15	0xbd692c4e	-0.056927018
16	0xbd3b2437	-0.045688834
17	0xbe40caee	-0.18827412
18	0xbda981ad	-0.08276687
19	0xbd30bf05	-0.04315092
20	0xbd67799a	-0.056512453
21	0xbe24c8b1	-0.16092183
22	0xbdbbb342	-0.0916505
23	0xbd13f2df	-0.03612029
24	0xbe0dc228	-0.13843596
25	0xbde92fba	-0.11386056
26	0xbdf91069	-0.12161333
27	0xbd641ba2	-0.055690415
28	0xbdb2cb79	-0.087302156
29	0xbd9198d1	-0.071092255
30	0xbd8eae5c	-0.0696685
31	0xbe525ff9	-0.20544423
32	0xbe026fe7	-0.12738
33	0xbbca8a35	-0.0061810263
34	0xbd527df1	-0.05138964
35	0xbd9673a1	-0.07346273
36	0xbd1036ed	-0.03520863
37	0xbd348e34	-0.044080928
38	0xbdc9c0b8	-0.09851211
39	0xbe0418a1	-0.1290002
40	0xbd299f2c	-0.041411564
41	0xbce92108	-0.028458133
42	0xbdadc3a7	-0.08484583
43	0xbe78378e	-0.24239942
44	0xbdac0001	-0.08398438
45	0xbe093ab5	-0.13401301
46	0x3d38eb74	0.04514642
47	0xbe1e9395	-0.15485986
48	0xbdb1d550	-0.08683264
49	0xbd8e9f0e	-0.06963931
50	0xbd84e185	-0.06488327
51	0xbdd347ec	-0.103164524
52	0xbe4403e3	-0.19142108
53	0xbd26b038	-0.0406954
54	0xbe23e91a	-0.1600689
55	0xbe19ac7d	-0.15007205
56	0xbd5667b3	-0.05234499
57	0xbda9563c	-0.08268401
58	0xbd87ed8e	-0.06637107
59	0xbe298b9d	-0.16557164
60	0xbe0b9230	-0.13629985
61	0xbd4dea8f	-0.05027252
62	0x3becc52e	0.007225654
63	0xbe688f37	-0.22710882

arith.constant1 f4 [64, 3, 3, 32]
0	0x3e18bde2	0.14916185
1	0xbe996589	-0.29960278
2	0xbd04ce8d	-0.032423545
3	0x3d895db9	0.06707329
4	0x3d43b068	0.047775656
5	0x3cf33aef	0.029691188
6	0x3d6b3834	0.057426646
7	0xbc227a27	-0.009916819
8	0x3e2506ad	0.16115828
9	0xbf023d6d	-0.5087498
10	0xbe8472f1	-0.25868943
11	0xbecb0dcb	-0.3965896
12	0xbaf79828	-0.0018889951
13	0x3d6c6ca3	0.05772079
14	0x3e6aaba5	0.2291704
15	0x3dc5a5c2	0.096507564
16	0x3c39012c	0.011291783
17	0x3d087993	0.033319067
18	0x3e64da11	0.2234881
19	0x3e15707f	0.14593695
20	0x3e7a8571	0.24464966
21	0x3e3d7b4f	0.1850407
22	0x3d64db4c	0.0558732
23	0xbcc8eb88	-0.024526373
24	0xbdaf18c3	-0.08549645
25	0x3e0994ad	0.13435622
26	0x3e999d0b	0.30002627
27	0xbde500ce	-0.11181794
28	0x3e13365a	0.14376202
29	0x3d01aee5	0.031660933
30	0xbd9da05e	-0.07696603
31	0x3ddf1064	0.10891798
32	0x3cbd9dd8	0.023146555
33	0xbdc9d82b	-0.09855684
34	0x3d07f21b	0.033189874
35	0xbef0072b	-0.4688047
36	0xbe36577e	-0.17806813
37	0xbd9100c5	-0.07080225
38	0xbdd973e9	-0.10617811
39	0xbcda3a9d	-0.026639277
40	0x3de235d4	0.11045423
41	0xbe68de32	-0.22741011
42	0xbe1f4a0d	-0.15555592
43	0xbebcb696	-0.36858052
44	0xbca4d74f	-0.020122198
45	0xbea0834e	-0.31350178
46	0xbeb32e45	-0.34996238
47	0xbcc45f9f	-0.023971377
48	0xbeaba0ef	-0.3352122
49	0xbe05e71c	-0.13076442
50	0xbe126e2c	-0.1429984
51	0x3de8d2bb	0.11368319
52	0xbd144309	-0.036196742
53	0xbd2585aa	-0.040410675
54	0xbdf686bb	-0.120374165
55	0xba1d4721	-0.0005999674
56	0xbed81c59	-0.42209128
57	0xbe40543b	-0.18782131
58	0xbea97818	-0.33099437
59	0xbced9a48	-0.029004231
60	0x3d3fd39f	0.046832677
61	0xbd5280e0	-0.051392436
62	0xbe1e0f91	-0.15435626
63	0xbdaed882	-0.08537389
64	0x3cf9c8b5	0.030491212
65	0xbe7b58e3	-0.24545626
66	0xbea62cd9	-0.3245609
67	0x3d8801cf	0.0664097
68	0x3dd52659	0.10407705
69	0xbe143ee5	-0.14477117
70	0xbe9cafa8	-0.30602765
71	0xbdc040b4	-0.09387341
72	0xbd7fa2cc	-0.062411115
73	0xbe80f340	-0.25185585
74	0xbd7d46e1	-0.061835174
75	0xbe231f65	-0.15929945
76	0xbe9f9bca	-0.31173545
77	0x3e0ec011	0.13940455
78	0xbd5dffe4	-0.054199114
79	0xbedfe686	-0.43730563
80	0x3da9a00a	0.08282478
81	0xbdcb9bea	-0.099418476
82	0x3cd350c0	0.02579534
83	0x3cd4c90e	0.025974777
84	0x3da4a030	0.08038366
85	0xbe660029	-0.22460999
86	0xbe448f25	-0.1919523
87	0xbd0cc274	-0.034365132
88	0x3d361f95	0.044463713
89	0xbecf2dbe	-0.40464586
90	0xbd13d9f6	-0.036096536
91	0xbe3bec6f	-0.18351911
92	0xbc9537e3	-0.018215125
93	0xbe9961d3	-0.29957446
94	0xbe00e0ec	-0.12585801
95	0xbdd258fc	-0.10270879
96	0x3ddaded5	0.10687033
97	0xbe1c2a5f	-0.15250538
98	0x3dc35bbb	0.095389806
99	0xbda11ed2	-0.07867207
100	0xbcf63d9e	-0.030058678
101	0x3ca1bce9	0.0197434
102	0x3e0335ba	0.12813464
103	0xbcebf3ed	-0.028802836
104	0x3dc52dd5	0.096278824
105	0x3d065d76	0.032803975
106	0x3dc62ab0	0.09676111
107	0xbea8980b	-0.329285
108	0xbd8fce6e	-0.07021795
109	0x3de95c2e	0.11394535
110	0x3e271800	0.16317749
111	0x3e02869d	0.12746663
112	0x3e347f58	0.17626703
113	0x3d010b6c	0.031505033
114	0x3da914b3	0.08255901
115	0x3dbcdb62	0.092215315
116	0xbd7fa9ec	-0.06241791
117	0x3d40264e	0.04691153
118	0xbd38cb6b	-0.04511587
119	0x3e53c475	0.20680411
120	0xbd189297	-0.037249174
121	0x3e87dd08	0.2653582
122	0xbd974b63	-0.07387426
123	0x3e6f47b0	0.2336719
124	0x3da7e90c	0.08198747
125	0x3dd3843c	0.10327956
126	0xbe062b45	-0.13102444
127	0xbd435439	-0.047687743
128	0x3e343638	0.17598808
129	0xbcd0aa0a	-0.025471706
130	0xbe56d8e6	-0.20981178
131	0x3d3f7a78	0.046747655
132	0x3da2cc86	0.07949166
133	0xbe170bc7	-0.14750586
134	0xbca96ede	-0.020682748
135	0x3bde2c66	0.006780195
136	0xbd4f3811	-0.05059058
137	0x3d2bd588	0.041951686
138	0x3e550295	0.20801766
139	0xbe2082c7	-0.15674888
140	0xbd8cc2e2	-0.068731084
141	0x3d63599b	0.055505376
142	0xbe85cd1d	-0.26133052
143	0xbde617cc	-0.11235008
144	0xbea389d3	-0.3194109
145	0xbdabcc61	-0.083885916
146	0xbe57f01c	-0.21087688
147	0x3e42f913	0.19040327
148	0x3c93bc34	0.018034078
149	0xbed8127a	-0.42201596
150	0xbeef009a	-0.46680146
151	0x3e6dfc3c	0.23240751
152	0x3ca76825	0.020435402
153	0xbe81a0bb	-0.2531794
154	0xbe3d2df5	-0.18474562
155	0xbd3cd1e5	-0.04609861
156	0x3dbf383b	0.09336897
157	0xbc5ad621	-0.013356716
158	0xbeb0af8c	-0.34508932
159	0xbd16836d	-0.03674643
160	0xbec9b1d2	-0.3939348
161	0xbe8d1131	-0.27552179
162	0xbd354b0c	-0.044261023
163	0x3d6158fe	0.05501651
164	0xbd60b441	-0.054859404
165	0x3caf8064	0.021423526
166	0xbe5b677e	-0.21426198
167	0xbd4ee496	-0.050510965
168	0xbe46cd64	-0.19414288
169	0xbeedf996	-0.4647948
170	0xbda5c3c3	-0.08093979
171	0xbd9a6f3b	-0.07540747
172	0xbe65cc73	-0.22441272
173	0xbdde245e	-0.1084678
174	0xbe17e383	-0.14832883
175	0xbe16cd8d	-0.14726849
176	0xbdf6b2e5	-0.1204584
177	0xbca52bea	-0.020162541
178	0xbd0b393b	-0.033990126
179	0xbe942d05	-0.28940597
180	0xbe15d1c8	-0.14630806
181	0x3d9ab1f2	0.075534716
182	0xbdc3d1d4	-0.09561506
183	0xbede852e	-0.43460983
184	0xbda49166	-0.08035545
185	0x3d561b30	0.05227202
186	0x3ceecc33	0.029150104
187	0xbe30f5f4	-0.17281324
188	0x3d90779b	0.07054063
189	0xbe6fbe43	-0.23412423
190	0xbdc18c4a	-0.09450586
191	0xbd9b27c0	-0.07575941
192	0xbca86d71	-0.020559998
193	0x3cc4e09a	0.02403288
194	0xbc9e2b53	-0.019307768
195	0xbed0ca9f	-0.40779588
196	0xbea76f99	-0.3270233
197	0xbd2cbf39	-0.04217455
198	0xbe005c0d	-0.12535115
199	0xbecd7e6c	-0.40135515
200	0xbea53baa	-0.32272083
201	0x3b673049	0.0035276583
202	0x3e0da04b	0.13830678
203	0xbee3ec8d	-0.4451641
204	0xbe05c77c	-0.13064378
205	0xbe87aeca	-0.2650054
206	0xbd9fb819	-0.07798786
207	0x3e01b864	0.12667996
208	0xbdb2085a	-0.08692999
209	0xbe3b0fd0	-0.1826775
210	0xbdde842e	-0.10865055
211	0xbe32d63b	-0.17464535
212	0xbe24ed3b	-0.16106121
213	0xbdf43fa2	-0.119261995
214	0xbe9ba42b	-0.30398688
215	0x3e0129d5	0.12613614
216	0xbec33011	-0.3812261
217	0x3e1237f2	0.14279154
218	0xbe2df565	-0.16988142
219	0xbe84f7e8	-0.25970387
220	0x3da44ed9	0.080228515
221	0x3d3f168d	0.046652365
222	0xbeb43b64	-0.3520156
223	0xbe02ef98	-0.1278671
224	0xbe2edb04	-0.17075735
225	0x3ac71cd7	0.001519109
226	0xbdd93f75	-0.106078066
227	0x3d92bd2e	0.071649894
228	0x3e3e5c77	0.1858996
229	0xbd4ec872	-0.05048413
230	0xbe1dad34	-0.15398103
231	0xbceec571	-0.029146882
232	0xbe1b3608	-0.1515733
233	0xbe691948	-0.2276355
234	0x3cea97e7	0.028636886
235	0xbd6e865b	-0.0582336
236	0xbdf58834	-0.11988869
237	0x3cb4f7ce	0.022090819
238	0x3b1d8ace	0.0024039033
239	0xbeaf0b21	-0.34188178
240	0xbcedab5b	-0.029012373
241	0xbe237ba5	-0.15965135
242	0xbd0078e5	-0.031365294
243	0xbe082673	-0.13295917
244	0xbb93206e	-0.00448995
245	0xbda864b5	-0.08222333
246	0x3d1cde68	0.03829804
247	0xbeb3a9f7	-0.3509061
248	0x3c98212a	0.018570501
249	0x3d7928fd	0.060830105
250	0xbc8bd708	-0.017070308
251	0xbe24d603	-0.16097264
252	0xbd5fa018	-0.054596037
253	0xbe84ee2a	-0.25962955
254	0xbe2d6491	-0.16932894
255	0x3d26961d	0.040670503

arith.constant2 f4 [10, 128]
0	0xbe8007b3	-0.25005874
1	0xbe695906	-0.22787866
2	0xbef8d7b7	-0.48602077
3	0xbde17b81	-0.110098846
4	0x3d553614	0.052053526
5	0x3e3d612e	0.18494102
6	0x3dc30f2c	0.09524378
7	0x3cc82756	0.02443282
8	0x3e66ad72	0.22527102
9	0xbe5889eb	-0.21146362
10	0x3e14b67a	0.14522734
11	0xbe336aca	-0.17521206
12	0x3d63e10e	0.05563455
13	0xbe9bc7a8	-0.30425763
14	0xbe6503c4	-0.22364718
15	0xbdb2d7c5	-0.08732561
16	0xbee09920	-0.43866825
17	0x3db4d856	0.08830325
18	0xbe4a53ae	-0.19758484
19	0x3d9b7c26	0.07592039
20	0xbda520b6	-0.0806288
21	0x3dc71566	0.09720878
22	0x3e88ab90	0.26693392
23	0xbe8bd4d8	-0.27310824
24	0x3dcfa7e2	0.10139443
25	0x3d321adf	0.043482658
26	0x3e310760	0.1728797
27	0x3ccf77c8	0.02532567
28	0x3dd5d6e2	0.10441376
29	0x3e5752aa	0.21027628
30	0xbdc2c14e	-0.09509526
31	0xbe47070d	-0.19436283
32	0xbe62024a	-0.22071186
33	0xbe643d4d	-0.2228901
34	0xbe2440c5	-0.16040333
35	0xbe871d07	-0.26389334
36	0x3dff5647	0.12467628
37	0xbd87ce30	-0.06631124
38	0xbd335174	-0.04377885
39	0x3d8e072e	0.06934963
40	0xbd5a51b4	-0.053300574
41	0x3d4d556a	0.050130285
42	0x3e24af91	0.16082598
43	0x3e86cfa2	0.26330286
44	0xbdf8c7ff	-0.12147521
45	0xbe127c7c	-0.143053
46	0x3e8097f9	0.25115946
47	0xbe08dc01	-0.13365175
48	0xbe13b31a	-0.1442379
49	0x3daa5b07	0.08318143
50	0x3e7d2516	0.24721178
51	0x3daac73e	0.08338784
52	0x3e01482a	0.12625185
53	0x3e7e9145	0.24860103
54	0x3b972844	0.0046129543
55	0x3c790a69	0.015200236
56	0x3e8a77a8	0.27044415
57	0xbca2aa79	-0.019856678
58	0xbea97860	-0.3309965
59	0x3d04c1d5	0.032411415
60	0xbd03a7b7	-0.032142367
61	0xbe48deeb	-0.19616286
62	0xbe8735b4	-0.2640816
63	0xbefc4251	-0.49269345
64	0xbe371c05	-0.17881782
65	0xbdd58e3a	-0.10427518
66	0xbc599e5b	-0.013282384
67	0x3e0a7d93	0.13524465
68	0xbdb9b6f6	-0.090681
69	0x3e042eae	0.12908432
70	0x3d633476	0.055469953
71	0xbe2ec08b	-0.17065637
72	0xbe62ddd4	-0.22154933
73	0x3e730029	0.2373053
74	0xbcebc881	-0.028782131
75	0x3d7ff88f	0.062492903
76	0xbead043f	-0.33792302
77	0x3e4d45b2	0.20046118
78	0xbef92408	-0.48660302
79	0xbe5609ec	-0.20902222
80	0x3e3dbd02	0.18529132
81	0x3c604c81	0.013690115
82	0xbe15f30f	-0.14643501
83	0xbe58da46	-0.21177015
84	0xbef3101f	-0.47473237
85	0xbe72c76b	-0.23708884
86	0x3cb489bf	0.022038339
87	0xbd660226	-0.056154393
88	0xbe9033b6	-0.28164452
89	0x3e2cd024	0.16876274
90	0xbcaa1868	-0.020763591
91	0xbf1806e4	-0.59385514
92	0xbd452bbf	-0.048137423
93	0x3e01ff71	0.126951
94	0xbe4eb09a	-0.20184556
95	0x3d8a461d	0.06751654
96	0xbaf8419b	-0.001894045
97	0x3e27d748	0.16390717
98	0xbde56bdd	-0.11202214
99	0x3e2c9cfd	0.16856761
100	0x3cde2a31	0.027119728
101	0xbe6b9312	-0.23005322
102	0xbc895e86	-0.016768705
103	0x3e98ef49	0.2987006
104	0x3e6d7323	0.23188452
105	0x3e381c38	0.17979515
106	0xbd18c9dd	-0.037301887
107	0xbe7d1219	-0.24713935
108	0xbe44869f	-0.19191979
109	0xbdb7b091	-0.08969224
110	0xbea20bee	-0.31649727
111	0x3d89b302	0.06723596
112	0xbdb9e806	-0.09077458
113	0xbec780ae	-0.38965362
114	0x3e6e1c2d	0.23252936
115	0xbdad8e83	-0.084744476
116	0xbd774f91	-0.060378615
117	0x3e36edb4	0.17864114
118	0xbec32aaf	-0.38118502
119	0xbc439c15	-0.011939068
120	0x3df643db	0.12024661
121	0x3da5e5c5	0.08100466
122	0xbda09ff2	-0.07843007
123	0x3db5f6a4	0.088849336
124	0xbea788fd	-0.327217
125	0x3e355ccc	0.1771118
126	0x3e389d37	0.18028723
127	0x3de074ad	0.10959754
128	0x3e5fe43f	0.21864413
129	0xbe72f031	-0.23724438
130	0xbd81cc78	-0.063378274
131	0x3e49fea3	0.19726042
132	0xbd865bb6	-0.06560461
133	0xbb2463fc	-0.002508401
134	0x3daef579	0.08542914
135	0x3e28b0ab	0.16473643
136	0x3d61d12a	0.055131115
137	0xbc86a352	-0.0164353
138	0xbefb43ef	-0.49075267
139	0x3e261f6d	0.16222925
140	0xbd5bfcf8	-0.053708047
141	0x3e3f717b	0.18695633
142	0x3dd78d63	0.10525014
143	0xbd770ca7	-0.0603148
144	0x3d92c401	0.07166291
145	0xbde5a8dd	-0.11213849
146	0xbc3020a5	-0.010749971
147	0xbe586744	-0.21133143
148	0xbcfc261c	-0.03077989
149	0xbe0361f1	-0.1283033
150	0x3e316f99	0.17327727
151	0xbe569a07	-0.20957194
152	0x3d8d4023	0.06896999
153	0x3c07069a	0.00824132
154	0xbe1df939	-0.15427102
155	0x3e2be461	0.16786338
156	0x3c0563a7	0.008141435
157	0xbe27ff97	-0.16406094
158	0x3d2b68ad	0.041847873
159	0xbe34e3d5	-0.17665036
160	0x3f130721	0.5743275
161	0x3e019616	0.1265491
162	0x3dd3ec85	0.10347847
163	0x3e1857f7	0.14877306
164	0x3de5e677	0.11225598
165	0xbe159f85	-0.14611633
166	0xbe47992a	-0.19492021
167	0xbbbfabc6	-0.0058493344
168	0x3e0efe83	0.13964276
169	0xbe081edc	-0.13293022
170	0x3e1cfc15	0.15330537
171	0xbde85350	-0.113440156
172	0x3c122202	0.008919241
173	0xbe4d20cc	-0.20032042
174	0x3d997477	0.07492917
175	0xbca93d9b	-0.020659259
176	0xbcfd8ebd	-0.030951852
177	0x3da7b2e3	0.08188417
178	0xbd29f71a	-0.04149542
179	0xbdcbb7f8	-0.09947199
180	0x3e879ed6	0.2648837
181	0xbedea545	-0.43485466
182	0xbd643e06	-0.055723213
183	0x3e93c923	0.28864393
184	0xbde3fd06	-0.11132245
185	0xbeacbd32	-0.33738095
186	0x3d850f74	0.06497088
187	0xbde726b7	-0.11286681
188	0x3e5064d4	0.20350963
189	0x3d8c1980	0.06840801
190	0xbe874d6e	-0.26426262
191	0x3e1a13e5	0.15046652
192	0x3e136984	0.1439572
193	0x3c1bbf26	0.009506023
194	0xbe125bfc	-0.14292902
195	0x3e2da06e	0.1695573
196	0x3cdcd7c9	0.026958363
197	0xbdfddc57	-0.12395542
198	0x3e40169a	0.18758622
199	0xbda5fbc0	-0.08104658
200	0xbdba41b6	-0.090945646
201	0x3d3d03dc	0.04614626
202	0xbdcbf92c	-0.09959635
203	0xbecb71f3	-0.39735374
204	0xbceeeb23	-0.029164856
205	0xbd752d25	-0.059857506
206	0xbebc5b8e	-0.367886
207	0x3e1f6a73	0.15567951
208	0x3d1ef463	0.038807284
209	0xbe38d221	-0.18048908
210	0xbdb0cbf6	-0.086326525
211	0xbe4b9f13	-0.19884901
212	0xbe20f346	-0.15717801
213	0x3e61404b	0.21997182
214	0x3e5522d4	0.20814067
215	0xbdee88c9	-0.116471834
216	0xbc6ab4f7	-0.014325372
217	0x3de136d5	0.109967865
218	0x3e4f38a4	0.2023645
219	0x3ecd8ec6	0.4014799
220	0xbec33fb6	-0.38134545
221	0x3ccba57c	0.024859183
222	0xbe964b6a	-0.2935441
223	0x3c5364cb	0.012902449
224	0x3c961e92	0.018325124
225	0x3e3f7e11	0.18700434
226	0xbdb53b6a	-0.08849223
227	0xbe5ab2a4	-0.21357208
228	0xbe697610	-0.22798944
229	0x3dd2b29e	0.10287975
230	0xbee55ab8	-0.44795775
231	0xbe16de52	-0.14733246
232	0x3e08fefc	0.13378519
233	0xbe7f3bdf	-0.24925183
234	0xbe28acbb	-0.16472141
235	0xbd068235	-0.03283902
236	0x3e512e8d	0.20427914
237	0xbcfa0489	-0.03051974
238	0x3e448277	0.19190393
239	0xbe831e70	-0.2560916
240	0x3e17ba3d	0.14817138
241	0xbe554aac	-0.20829266
242	0x3e010214	0.12598449
243	0xbd8a39d2	-0.067493096
244	0xbdcb7a2a	-0.0993541
245	0xbedc1f3c	-0.4299258
246	0x3d8dee72	0.069302455
247	0xbe382610	-0.1798327
248	0xbc5d053a	-0.013490016
249	0x3ea61a2d	0.32441846
250	0xbdb6615d	-0.08905289
251	0xbdf20f93	-0.11819377
252	0x3dd25869	0.10270769
253	0xbe494344	-0.19654566
254	0x3def92d1	0.11697925
255	0x3e07e881	0.13272287

arith.constant3 f4 [128, 1600]
0	0xbe37c14e	-0.17944834
1	0x3e36b11e	0.17841002
2	0x3cda46f5	0.026645163
3	0x3e24e258	0.16101968
4	0x3cb7d375	0.022439698
5	0xbb408429	-0.0029375649
6	0xbdcf1d6f	-0.10113036
7	0xbcc74f02	-0.024329666
8	0x3e2960a4	0.16540772
9	0x3e7b4384	0.24537474
10	0x3b011782	0.001969785
11	0x3e3f7f06	0.187008
12	0xbe208238	-0.15674675
13	0x3c658529	0.014008799
14	0x3d37181e	0.044700734
15	0x3db83ed4	0.089963585
16	0x3e8a3e28	0.27000546
17	0x3e75343d	0.23945709
18	0x3dbe4a24	0.09291485
19	0x3d5f5334	0.054522708
20	0xbd892b03	-0.06697657
21	0x3e602183	0.21887784
22	0xbe341a51	-0.17588164
23	0x3d83e115	0.06439415
24	0x3e992e69	0.2991822
25	0x3e4ab036	0.19793782
26	0x3dab7399	0.08371658
27	0xbc71290b	-0.014719258
28	0x3e179b93	0.1480544
29	0x3df72142	0.1206689
30	0x3d930698	0.07178992
31	0x3d962d74	0.07332888
32	0xbc544775	-0.01295649
33	0x3dcb75df	0.099345915
34	0x3d4dc516	0.050236784
35	0xbd3ce8c6	-0.046120428
36	0x3ddc9fc1	0.10772658
37	0x3e0a36fc	0.13497537
38	0xbdb0c5c3	-0.0863147
39	0x3e29efdd	0.16595407
40	0x3e12943c	0.1431436
41	0x3defc4c7	0.11707454
42	0x3e958652	0.2920404
43	0xbc127b83	-0.00894058
44	0x3e420eff	0.18951033
45	0x3dce3959	0.10069532
46	0x3e928ece	0.28624576
47	0x3d10b6e0	0.035330653
48	0xbcf6af7a	-0.03011297
49	0x3de84a68	0.11342317
50	0x3cf4e445	0.029894004
51	0x3ec9e78e	0.39434475
52	0xbb9f4569	-0.0048605693
53	0x3e570da7	0.21001302
54	0x3d9baccf	0.0760132
55	0x3dd84c15	0.105613865
56	0x3d8cfdf8	0.06884378
57	0x3d99a42a	0.07502015
58	0x3c2d97af	0.010595246
59	0x3e5a5ea5	0.21325167
60	0x3e6005bc	0.21877187
61	0xbe09e6a8	-0.13466895
62	0xbd95faf3	-0.073232554
63	0x3ca263b6	0.019822937
64	0xbd27cd33	-0.040967178
65	0x3e10204f	0.14074825
66	0x3dd276b6	0.102765486
67	0x3d30a4b9	0.04312584
68	0x3ce7a666	0.028277587
69	0xbb152fbf	-0.0022764055
70	0xbd7ca0d1	-0.061676804
71	0x3e7843d9	0.24244632
72	0x3d8bcb34	0.06825867
73	0x3e8d0bb6	0.27547997
74	0xbcaf1d30	-0.021376222
75	0x3e0bf6a3	0.13668303
76	0x3e204a30	0.156533
77	0xbd1cbe83	-0.038267624
78	0x3c39cfec	0.011341076
79	0x3e97496e	0.2954821
80	0x3f0f1520	0.5589161
81	0x3d8431ab	0.06454786
82	0xbd2e1e91	-0.04250962
83	0xbe1493a9	-0.14509453
84	0x3e4e9a57	0.20176063
85	0xbbbc1a9f	-0.005740478
86	0xbe31219d	-0.17297979
87	0x3dfc4878	0.1231851
88	0x3d08eb81	0.03342772
89	0x3df18424	0.11792782
90	0x3e9de037	0.30835125
91	0xbd3a69df	-0.045511123
92	0xbcbea982	-0.023274187
93	0x3e3a4e62	0.18193963
94	0x3e42996b	0.19003837
95	0x3de925f9	0.11384196
96	0x3dd2eb38	0.10298771
97	0x3d804cb4	0.0626463
98	0xbd761eb4	-0.060087875
99	0xbc551076	-0.013004413
100	0x3cdbe2a1	0.026841464
101	0x3e692868	0.2276932
102	0x3d86ecfd	0.06588171
103	0xbcf04740	-0.02933085
104	0x3e062563	0.131002
105	0x3b7aeedf	0.003828935
106	0x3c82ba7a	0.01595806
107	0xbcc3c1cc	-0.02389612
108	0x3e217b6d	0.1576974
109	0x3e99028c	0.29884756
110	0x3e0d8815	0.13821442
111	0xbc8c84f6	-0.017153244
112	0xbe1ae404	-0.15126044
113	0x3e3f1ce2	0.18663362
114	0xbe0b8315	-0.13624223
115	0x3e8d7d4d	0.2763466
116	0x3df9f828	0.12205535
117	0x3e5e950f	0.21736549
118	0x3d9f357d	0.07773874
119	0xbd1ec12a	-0.038758434
120	0x3d172c0e	0.03690725
121	0x3dcde3f2	0.10053243
122	0x3db1ab2f	0.08675229
123	0x3e1cfdeb	0.15331237
124	0xbced7ebc	-0.028991096
125	0x3e053a03	0.13010411
126	0x3e358704	0.17727286
127	0xbcaddb40	-0.02122271
128	0x3d878f67	0.06619149
129	0x3d0917df	0.03347003
130	0xbdbe9db6	-0.09307425
131	0x3e243ebf	0.1603956
132	0x3e49f6ee	0.19723102
133	0x3ce28bfc	0.02765464
134	0xbdd7a145	-0.105288066
135	0x3e13d132	0.1443527
136	0xbd7e09a7	-0.062020924
137	0xbd6a7638	-0.05724165
138	0xbd680a69	-0.056650553
139	0x3c9ef927	0.019405914
140	0x3e6bd602	0.23030856
141	0xbde210ab	-0.110383354
142	0xbd32ba6e	-0.043634824
143	0x3e6b3fad	0.22973509
144	0x3e53f84b	0.20700185
145	0xbd98df54	-0.074644715
146	0xbdbf2d5b	-0.09334823
147	0xbe074fc0	-0.13214016
148	0x3e0bc999	0.13651122
149	0xbd20b0c0	-0.039231062
150	0xbe4ddb3b	-0.20103161
151	0xbd46404e	-0.04840117
152	0xbd221656	-0.039572082
153	0x3d453279	0.048143838
154	0x3e3314c7	0.17488395
155	0xbe739b8d	-0.23789807
156	0xbbabac17	-0.0052390206
157	0x3dd5cbd0	0.10439265
158	0x3d8b09ed	0.067890026
159	0x3e2dae6b	0.16961066
160	0x3dce114c	0.10061893
161	0xbe4d38e4	-0.20041233
162	0xbcf651b4	-0.030068256
163	0xbd07941e	-0.03310024
164	0x3c9f30f8	0.01943253
165	0x3e03d7d8	0.12875307
166	0xbd0bed01	-0.03416157
167	0x3c754cde	0.01497194
168	0x3ebb40ab	0.36572775
169	0x3e85ca52	0.2613092
170	0xbc41fc91	-0.011840002
171	0x3ddcce0f	0.1078149
172	0x3dbdf9e5	0.09276179
173	0x3e16d4de	0.1472964
174	0x3e86ce72	0.2632938
175	0xbd357a9a	-0.044306375
176	0xbe0507fe	-0.1299133
177	0xbe56fb41	-0.20994283
178	0x3c30cc01	0.010790826
179	0x3d6487e2	0.05579365
180	0x3e293ec2	0.16527846
181	0x3e17e242	0.14832404
182	0xbd063981	-0.032769684
183	0x3cfe49ac	0.031040989
184	0xbd2f34ea	-0.042775072
185	0xbdf4ba27	-0.11949568
186	0x3c36e54f	0.01116307
187	0x3d9ef678	0.07761854
188	0xbe34061e	-0.17580459
189	0xbc58df85	-0.013236885
190	0x3e2a3bac	0.16624326
191	0x3cb697bd	0.022289151
192	0x3d485adc	0.048914775
193	0xbc8d7882	-0.017269377
194	0x3d0c2f82	0.034224994
195	0x3e1fbbce	0.15598986
196	0xbdbbbb4e	-0.09166585
197	0x3d39ea5f	0.04538953
198	0xbe20cf8d	-0.15704174
199	0x3e11f167	0.14252244
200	0xbd174b9a	-0.036937334
201	0x3e49f189	0.19721045
202	0xbd60f378	-0.05491969
203	0xbdb737cf	-0.089461915
204	0x3e4c89ce	0.19974443
205	0x3df91ba3	0.121634744
206	0xbccb4cbd	-0.024816865
207	0x3dc44572	0.09583558
208	0x3dfe9c96	0.1243221
209	0xbd92528a	-0.07144649
210	0xbdf90be1	-0.12160469
211	0xbd84df1d	-0.06487868
212	0x3e4e5a27	0.20151578
213	0x3cb08221	0.021546425
214	0xbe359fae	-0.17736694
215	0x3c12f241	0.008968891
216	0x3d755772	0.059897847
217	0x3df53107	0.11972242
218	0x3dfbcae2	0.12294556
219	0x3d526bab	0.05137221
220	0x3d62da1f	0.055383798
221	0xbd0002bb	-0.031252604
222	0xbde6f927	-0.11277991
223	0xbce5d6c8	-0.028056517
224	0x3cf779c3	0.030209428
225	0xbc7d82da	-0.015473092
226	0x3c8cb68c	0.017176889
227	0xbdd1a075	-0.10235683
228	0xbe0e33f7	-0.1388701
229	0xbd8734ef	-0.06601893
230	0x3d953b3e	0.0728669
231	0xbc983303	-0.018579012
232	0x3dac7cde	0.08422254
233	0xbcba15db	-0.0227155
234	0x3d3eb6cd	0.04656105
235	0x3e4699cb	0.19394605
236	0xbd2fd8bc	-0.042931303
237	0x3e5864c1	0.21132185
238	0x3de37591	0.111064084
239	0xbb9feda3	-0.0048806234
240	0xbd4a92ee	-0.04945653
241	0xbe59de9e	-0.21276328
242	0xbe2dbe34	-0.16967088
243	0x3d56b98f	0.052423056
244	0x3e091233	0.13385849
245	0x3cf08427	0.02935989
246	0x3db07c5b	0.08617469
247	0x3daa0af9	0.08302874
248	0xbd4ac6e2	-0.049506076
249	0xbddad3aa	-0.10684903
250	0x3c8d64aa	0.017259914
251	0xbdd7652f	-0.10517346
252	0xbd6dac2b	-0.05802552
253	0x3de20cce	0.110375986
254	0x3d39e4a5	0.045384068
255	0xbda3335e	-0.07968782

arith.constant4 f4 [128]
0	0xbcf2bf70	-0.0296323
1	0xbbe597cf	-0.0070066224
2	0xbdce0e17	-0.10061281
3	0xbd7422ad	-0.059603382
4	0x3d802f79	0.06259055
5	0xbd3e8fdf	-0.046523925
6	0x3c3bae17	0.0114550805
7	0xbc6e2993	-0.014536279
8	0xbcb42047	-0.021988047
9	0xbcc99f7f	-0.024612186
10	0xbc48e406	-0.012261396
11	0x3b99f188	0.004697982
12	0x3c8296aa	0.015940983
13	0x3cc10a9c	0.02356463
14	0xbb9654b4	-0.004587734
15	0xbd868678	-0.06568617
16	0x3d2a169c	0.04152547
17	0x3bf6fdb3	0.0075375675
18	0x3bd622b7	0.0065349
19	0xbd2b8ae2	-0.041880496
20	0xbc88a9d8	-0.01668255
21	0xbd55c663	-0.05219115
22	0x3cf47884	0.029842623
23	0xbd65f6ae	-0.056143455
24	0xbd2fc99c	-0.04291688
25	0xbc0ddb7b	-0.008658285
26	0x3c6f00f0	0.014587626
27	0x3a990cb2	0.0011676757
28	0xbd69bf8f	-0.05706745
29	0xbd4c18bd	-0.04982828
30	0x3cdcded2	0.026961718
31	0xbbece732	-0.007229709
32	0xba5fbda3	-0.0008535033
33	0x3d0c9abc	0.034327254
34	0xbbd8fc39	-0.006621864
35	0x3d90b37a	0.070654824
36	0xbb42de47	-0.0029734538
37	0xbc6c6dd8	-0.014430486
38	0xbd3d54dd	-0.04622351
39	0xbcefbcde	-0.029264864
40	0xbc017910	-0.007902399
41	0xbbda3919	-0.0066596386
42	0xbcf9488c	-0.0304301
43	0x3b903cfd	0.0044018016
44	0xbc3705a4	-0.011170778
45	0x3d1896be	0.037253134
46	0x3dd6adc7	0.10482364
47	0xbd03baf9	-0.032160733
48	0xbcbefd25	-0.023314068
49	0xbc0ad047	-0.008472509
50	0x3d1b90b8	0.03797981
51	0xbc4362df	-0.011925428
52	0xbd54d356	-0.05195936
53	0x3cb01d2a	0.021498282
54	0xbc5a9580	-0.013341308
55	0x3c54d9a8	0.012991346
56	0x3c1c6466	0.009545421
57	0xbd088b35	-0.033335883
58	0x3c9e1d03	0.019300943
59	0xbd0534c5	-0.032521028
60	0xbdba43a7	-0.09094935
61	0xbc9362fc	-0.017991535
62	0xbda9aa53	-0.0828444
63	0x3c46203e	0.012092648
64	0xbcbc8b72	-0.023015711
65	0xbc82b4b9	-0.015955316
66	0xbd07dd4f	-0.03317004
67	0x3d98460b	0.07435235
68	0x3bf78153	0.0075532584
69	0xbd861d9a	-0.06548615
70	0xbd755444	-0.059894815
71	0xbc84c295	-0.016206065
72	0x3d0a882e	0.033821277
73	0x3c2277f5	0.009916295
74	0xbd8d67a5	-0.06904534
75	0xbd296377	-0.041354623
76	0xbd2259cd	-0.039636422
77	0xbc9fef4d	-0.019523287
78	0xbdbb8b56	-0.091574356
79	0xbdb84cd0	-0.08999026
80	0xbb9b5435	-0.004740263
81	0x3c3d886b	0.011568169
82	0xbcf4ff90	-0.029907018
83	0xbc185e5b	-0.00929984
84	0xbc08ded5	-0.008353909
85	0xbd7d6d2b	-0.06187169
86	0x3d539767	0.05165806
87	0x3c2e5f65	0.010642861
88	0xbd5eb443	-0.05437113
89	0xbb973d16	-0.0046154363
90	0xbdabe5c1	-0.083934315
91	0xbd05312b	-0.032517593
92	0xbcd763bd	-0.026292676
93	0xbccfbe15	-0.025359193
94	0xbd510a6e	-0.051035337
95	0xbc37d5a4	-0.0112203695
96	0xbc1a5f4b	-0.009422134
97	0x3d37838e	0.044803195
98	0xbcd1ff24	-0.025634356
99	0x3cd7484b	0.02627959
100	0xbdb112bb	-0.08646151
101	0xbdedb0f0	-0.11606014
102	0xbd27320c	-0.040819213
103	0xbd07141d	-0.032978166
104	0xbd4c9847	-0.04994991
105	0xbb5e8f58	-0.0033959951
106	0xbbea7290	-0.00715477
107	0xbd8511a4	-0.06497505
108	0xbd9ec94e	-0.077532396
109	0x3bb15131	0.00541129
110	0x3d4e909b	0.050430875
111	0xbd7876c2	-0.06066013
112	0xbc53b531	-0.012921617
113	0xbc836b8f	-0.016042499
114	0x3ce83ea8	0.02835019
115	0xbc52ac86	-0.012858516
116	0xbbebb0ca	-0.0071927058
117	0xbcbbd70b	-0.022929689
118	0xbd30bffb	-0.043151837
119	0xbc69cc4c	-0.0142699
120	0x3d5dc93e	0.054146998
121	0xbd1e4625	-0.038641114
122	0xbb85cb31	-0.00408306
123	0xbd13e2ad	-0.036104847
124	0xbd9f8fea	-0.07791121
125	0xbc853084	-0.016258486
126	0x3d04fe10	0.032468855
127	0xbd5dc55f	-0.054143306

arith.constant5 f4 [10]
0	0xbc79fdd2	-0.015258269
1	0x3d183b55	0.03716596
2	0xbc8db234	-0.017296888
3	0xbb4745b5	-0.003040654
4	0x3cd51814	0.026012458
5	0xbd01bbe9	-0.031673346
6	0xbdd10c5a	-0.10207434
7	0xbbc72084	-0.006076874
8	0x3e000567	0.12502061
9	0xbd309f1c	-0.04312049

sequential_1/conv2d_1/convolution f4 [32, 3, 3, 1]
0	0x3e5308eb	0.2060887
1	0xbdfa2b5d	-0.12215302
2	0xbebbdce8	-0.36691976
3	0x3e5e9f00	0.21740341
4	0x3ea9d15a	0.33167535
5	0xbe4ea297	-0.2017921
6	0xbe15bde5	-0.1462322
7	0x3e8ada71	0.27119783
8	0xba56cd2e	-0.00081940263
9	0x3e5acc8a	0.21367088
10	0x3e979e3b	0.29612908
11	0x3e9abbe0	0.30221462
12	0xbe6793d8	-0.22614992
13	0xbdb7a152	-0.08966316
14	0xbd3fb34a	-0.046801843
15	0xbec3a3b4	-0.38210833
16	0xbe9634a7	-0.29337046
17	0xbe913579	-0.2836111
18	0xbcc4517e	-0.02396464
19	0x3c7f330b	0.015576134
20	0x3df9314e	0.12167607
21	0x3d50cb0c	0.05097489
22	0x3e2d5fdc	0.16931099
23	0x3d124dbc	0.035718665
24	0x3dbb3d45	0.091425456
25	0xbd6d1408	-0.05788043
26	0xbe1141d1	-0.14185263
27	0xbe2a7f3c	-0.16650099
28	0xbe044d56	-0.12920126
29	0x3d0a156c	0.033711836
30	0xbecbbb6e	-0.39791435
31	0xbda36a15	-0.07979218
32	0x3ddbdcb3	0.107354544
33	0xbc4420af	-0.011970683
34	0x3e870e15	0.2637793
35	0x3e946b16	0.2898795
36	0xbe983802	-0.2973023
37	0xbe331501	-0.17488481
38	0xbcf0cbbb	-0.029394021
39	0xbefdbe10	-0.4955907
40	0x3d3515aa	0.044210114
41	0x3e897c42	0.26852614
42	0xbe114573	-0.14186649
43	0x3e6afa30	0.22947001
44	0x3e125313	0.14289503
45	0x3d753295	0.059862692
46	0xbd86e2e8	-0.06586248
47	0x3d20a0c2	0.03921581
48	0x3d3950d5	0.045243103
49	0x3c7efb5e	0.01556286
50	0x3c910883	0.017704254
51	0xbae0f49f	-0.0017162747
52	0x3cc0a260	0.023514926
53	0x3db05c83	0.08611395
54	0xbd8ba2f7	-0.068181925
55	0xbd74cabc	-0.059763655
56	0x3d8ff476	0.07029049
57	0x3d06668a	0.032812633
58	0x3dfb2018	0.12261981
59	0xbc524dcc	-0.012835931
60	0xbddce201	-0.10785294
61	0x3c85166a	0.01624604
62	0xbe13b1f0	-0.14423347
63	0xbdc09e11	-0.09405149
64	0xbf1558be	-0.58338535
65	0xbea540b8	-0.3227594
66	0x3e442c26	0.19157466
67	0x3e037862	0.12838891
68	0x3e647788	0.22311223
69	0x3e2154f0	0.15755057
70	0x3e6f08b6	0.23343167
71	0xbd1d8293	-0.038454603
72	0xbde6354f	-0.112406366
73	0xbdec6411	-0.11542524
74	0xbdcab079	-0.09896941
75	0x3cdfc413	0.027315175
76	0xbd0b144c	-0.033954903
77	0xbd6f1703	-0.058371555
78	0x3db1ac3b	0.086754285
79	0xbdeaaf45	-0.11459211
80	0xbd39d007	-0.045364406
81	0x3e23f1a5	0.16010149
82	0x3dc0da38	0.09416622
83	0x3eb5d197	0.35511467
84	0x3e33abd0	0.1754601
85	0x3da1989e	0.078904375
86	0x3d1d1306	0.03834822
87	0xbec3112c	-0.3809904
88	0xbef8ffb9	-0.486326
89	0xbe604c0b	-0.21904008
90	0x3ec628e1	0.38703063
91	0x3e9a9817	0.3019416
92	0x3dca8f5c	0.09890625
93	0x3db4a768	0.08820993
94	0xbda620ad	-0.08111701
95	0xbeade11c	-0.33960807
96	0xbee12425	-0.4397289
97	0xbecb18a0	-0.39667225
98	0xbe4210be	-0.18951699
99	0xbe0dc1f6	-0.13843521
100	0xbd96b58b	-0.07358845
101	0x3eae4cb6	0.340429
102	0x3d18bb0f	0.037287768
103	0xbd4b957d	-0.04970311
104	0x3eae1475	0.33999982
105	0xbf06d9eb	-0.52676266
106	0xbe6c5bf8	-0.23081958
107	0xbca88063	-0.020569032
108	0x3dbdfe18	0.0927698
109	0xbde8ded7	-0.11370628
110	0x3da9a10c	0.082826704
111	0x3d4fc9df	0.05072963
112	0xbd0885c9	-0.033330712
113	0xbcbebfca	-0.023284812
114	0xbdc73976	-0.09727757
115	0x3e407aea	0.18796888
116	0xbe785f99	-0.24255218
117	0xbeb9bcad	-0.3627676
118	0xbe5b0912	-0.21390179
119	0xbd5714cd	-0.05251007
120	0x3e3060b2	0.17224386
121	0x3e8be8a1	0.2732592
122	0x3df7ea1c	0.121052
123	0xbcea1c62	-0.028577987
124	0x3d822fad	0.0635675
125	0xbd2c82fa	-0.042117096
126	0xbe848601	-0.25883487
127	0xbd8db844	-0.069199115
128	0xbdf9e394	-0.1220161
129	0xbda76fa9	-0.08175594
130	0x3e99729d	0.29970255
131	0xbd78767e	-0.060659878
132	0xbe44e96e	-0.19229671
133	0x3e8335f2	0.25627095
134	0xbe3c1d83	-0.18370633
135	0x3b970f41	0.0046099727
136	0x3e1da5c6	0.15395269
137	0x3deb8de8	0.11501676
138	0x3cdfc083	0.027313476
139	0x3c6ae956	0.014337858
140	0xbd94a19f	-0.07257389
141	0x3cee6d5c	0.029104881
142	0x3c91c05d	0.017791921
143	0xbe7aa880	-0.2447834
144	0xbea1c0ef	-0.3159251
145	0xbe0a2f63	-0.13494639
146	0x3d784697	0.060614195
147	0xbe5c5af1	-0.21519066
148	0x3eacd3dd	0.3375539
149	0x3e294834	0.1653145
150	0x3e2cea99	0.16886367
151	0x3e34d339	0.176587
152	0xbe27a1ba	-0.16370288
153	0xbdefa055	-0.11700503
154	0x3ce679da	0.028134275
155	0x3da1f8d7	0.079087906
156	0x3d951d76	0.0728101
157	0xbdae1d50	-0.08501685
158	0x3dd98222	0.10620524
159	0x3cbc94ac	0.023020111
160	0x3cb0b963	0.021572774
161	0xbd92b527	-0.07163458
162	0xbec83a6a	-0.39107066
163	0xbd9e88de	-0.07740949
164	0x3d75a2ab	0.059969585
165	0xbe325cd5	-0.17418225
166	0x3e415da9	0.18883385
167	0xbcf3bb79	-0.02975248
168	0x3e84315d	0.2581891
169	0x3dd6093b	0.10450979
170	0xbe06fffd	-0.1318359
171	0x3e102193	0.14075308
172	0xbea17dce	-0.31541294
173	0xbf14725c	-0.57987
174	0x3eaae36c	0.33376634
175	0x3dedf9ce	0.11619912
176	0xbe768be2	-0.24076799
177	0x3e742ded	0.23845644
178	0x3ead88a2	0.33893305
179	0x3c16e105	0.009208922
180	0x3dcb6c49	0.09932763
181	0xbe801793	-0.25017986
182	0xbea62cd9	-0.3245609
183	0x3d05a7b2	0.03263063
184	0x3e28df1e	0.16491362
185	0xbe809789	-0.25115612
186	0x3e28d592	0.1648772
187	0x3eb78672	0.3584476
188	0x3e03a880	0.12857246
189	0x3da6846e	0.08130728
190	0x3e0990de	0.13434169
191	0xbd8b3202	-0.067966476
192	0xba771977	-0.0009426097
193	0x3e09bd13	0.13451032
194	0x3e028f95	0.12750085
195	0xbd4aea18	-0.049539655
196	0x3d933686	0.07188134
197	0x3d91f931	0.071276076
198	0xbd8f94b8	-0.07010788
199	0xbc2b17e9	-0.010442712
200	0xbc4768d6	-0.012170991
201	0x3da69567	0.08133965
202	0x3e1819a0	0.14853525
203	0x3d35fa51	0.044428173
204	0xbe15e8b5	-0.14639552
205	0x3ca6812b	0.020325264
206	0x3d8933f1	0.0669936
207	0x3e549384	0.20759398
208	0x3e37447a	0.17897215
209	0xbe2b31c3	-0.16718201
210	0x3ec20e9d	0.37901774
211	0x3d417a75	0.047235925
212	0xbef06d65	-0.4695846
213	0x3e83a844	0.25714314
214	0xbe542336	-0.20716557
215	0xbeda9009	-0.42688015
216	0xbea3ef2c	-0.3201841
217	0xbe3cd249	-0.18439592
218	0x3de4c26f	0.11169898
219	0xbedda7a7	-0.4329197
220	0xbcd1b798	-0.02560024
221	0x3eb35d6b	0.3503221
222	0xbde69a9d	-0.11259959
223	0x3dd9a134	0.1062645
224	0x3e1c65fc	0.15273279
225	0xbeb9cb9a	-0.36288148
226	0x3e44e0b0	0.19226336
227	0x3df85296	0.12125127
228	0x3d040444	0.03223063
229	0x3e84575c	0.258479
230	0xbd767059	-0.060165737
231	0x3c20d21f	0.009815722
232	0x3e164469	0.14674534
233	0xbea9b46a	-0.33145458
234	0xbd9c045a	-0.076180175
235	0x3db0acd1	0.08626712
236	0xbed0c16d	-0.40772572
237	0x3b74e8e0	0.003737025
238	0x3d089cab	0.033352535
239	0xbd979fed	-0.0740355
240	0xbda3aed5	-0.07992331
241	0x3e6773b9	0.22602738
242	0x3e543f21	0.20727207
243	0xbcc5fb23	-0.024167603
244	0xbe3408eb	-0.17581527
245	0x3ca3e7c1	0.02000797
246	0x3d29d5d8	0.041463703
247	0x3e6fcee4	0.23418766
248	0x3e4b8939	0.19876565
249	0x3d579adc	0.05263792
250	0xbdc388a9	-0.0954755
251	0xbe7a560c	-0.24446887
252	0x3d113830	0.035453975
253	0xbb96ae5b	-0.0045984215
254	0xbd0cae03	-0.034345638
255	0x3db4b5b5	0.0882372

sequential_1/conv2d_1/Relu;sequential_1/conv2d_1/BiasAdd;sequential_1/conv2d_1/convolution; f4 [32]
0	0xbd81d02f	-0.06338536
1	0xbc08e64e	-0.00835569
2	0xbe2cb15d	-0.16864534
3	0xbd9eca2a	-0.077534035
4	0x3b87b48c	0.004141396
5	0xbe885e2f	-0.26634356
6	0xbe2389e6	-0.15970573
7	0xbd343122	-0.04399217
8	0xbd614254	-0.054994896
9	0x3b89ffbf	0.0042113955
10	0x3e2d43e4	0.1692043
11	0xbca9b78f	-0.02071741
12	0xbdc937a7	-0.09825068
13	0xbdb9f9a1	-0.09080816
14	0xbd0bf2c0	-0.03416705
15	0xbe1c1949	-0.1524402
16	0xbdf73a3d	-0.12071655
17	0xbe611bb7	-0.21983229
18	0xbd1d850e	-0.03845697
19	0xbdae779f	-0.0851891
20	0xbdf53774	-0.119734675
21	0xbe856983	-0.26057062
22	0xbe88976e	-0.26678032
23	0xbd3572ac	-0.044298813
24	0xbd3a5f0d	-0.045500804
25	0xbe00942b	-0.12556522
26	0xbd921a8b	-0.07133969
27	0xbd8f889d	-0.07008479
28	0xbe7187b4	-0.23586923
29	0xbe0d6627	-0.138085
30	0xbe07f48c	-0.13276881
31	0xbe4aba5e	-0.19797656
