app/src/main/assets/mnist_model_quant.tflite (tflite, 232432 bytes, 8 tensors)

arith.constant f4 [32]
0	0xbd81d02f	-0.06338536
1	0xbc08e64e	-0.00835569
2	0xbe2cb15d	-0.16864534
3	0xbd9eca2a	-0.077534035
4	0x3b87b48c	0.004141396
5	0xbe885e2f	-0.26634356
6	0xbe2389e6	-0.15970573
7	0xbd343122	-0.04399217
8	0xbd614254	-0.054994896
9	0x3b89ffbf	0.0042113955
10	0x3e2d43e4	0.1692043
11	0xbca9b78f	-0.02071741
12	0xbdc937a7	-0.09825068
13	0xbdb9f9a1	-0.09080816
14	0xbd0bf2c0	-0.03416705
15	0xbe1c1949	-0.1524402
16	0xbdf73a3d	-0.12071655
17	0xbe611bb7	-0.21983229
18	0xbd1d850e	-0.03845697
19	0xbdae779f	-0.0851891
20	0xbdf53774	-0.119734675
21	0xbe856983	-0.26057062
22	0xbe88976e	-0.26678032
23	0xbd3572ac	-0.044298813
24	0xbd3a5f0d	-0.045500804
25	0xbe00942b	-0.12556522
26	0xbd921a8b	-0.07133969
27	0xbd8f889d	-0.07008479
28	0xbe7187b4	-0.23586923
29	0xbe0d6627	-0.138085
30	0xbe07f48c	-0.13276881
31	0xbe4aba5e	-0.19797656

arith.constant1 f4 [32, 3, 3, 1]
0	0x3e5308eb	0.2060887
1	0xbdfa2b5d	-0.12215302
2	0xbebbdce8	-0.36691976
3	0x3e5e9f00	0.21740341
4	0x3ea9d15a	0.33167535
5	0xbe4ea297	-0.2017921
6	0xbe15bde5	-0.1462322
7	0x3e8ada71	0.27119783
8	0xba56cd2e	-0.00081940263
9	0x3e5acc8a	0.21367088
10	0x3e979e3b	0.29612908
11	0x3e9abbe0	0.30221462
12	0xbe6793d8	-0.22614992
13	0xbdb7a152	-0.08966316
14	0xbd3fb34a	-0.046801843
15	0xbec3a3b4	-0.38210833
16	0xbe9634a7	-0.29337046
17	0xbe913579	-0.2836111
18	0xbcc4517e	-0.02396464
19	0x3c7f330b	0.015576134
20	0x3df9314e	0.12167607
21	0x3d50cb0c	0.05097489
22	0x3e2d5fdc	0.16931099
23	0x3d124dbc	0.035718665
24	0x3dbb3d45	0.091425456
25	0xbd6d1408	-0.05788043
26	0xbe1141d1	-0.14185263
27	0xbe2a7f3c	-0.16650099
28	0xbe044d56	-0.12920126
29	0x3d0a156c	0.033711836
30	0xbecbbb6e	-0.39791435
31	0xbda36a15	-0.07979218
32	0x3ddbdcb3	0.107354544
33	0xbc4420af	-0.011970683
34	0x3e870e15	0.2637793
35	0x3e946b16	0.2898795
36	0xbe983802	-0.2973023
37	0xbe331501	-0.17488481
38	0xbcf0cbbb	-0.029394021
39	0xbefdbe10	-0.4955907
40	0x3d3515aa	0.044210114
41	0x3e897c42	0.26852614
42	0xbe114573	-0.14186649
43	0x3e6afa30	0.22947001
44	0x3e125313	0.14289503
45	0x3d753295	0.059862692
46	0xbd86e2e8	-0.06586248
47	0x3d20a0c2	0.03921581
48	0x3d3950d5	0.045243103
49	0x3c7efb5e	0.01556286
50	0x3c910883	0.017704254
51	0xbae0f49f	-0.0017162747
52	0x3cc0a260	0.023514926
53	0x3db05c83	0.08611395
54	0xbd8ba2f7	-0.068181925
55	0xbd74cabc	-0.059763655
56	0x3d8ff476	0.07029049
57	0x3d06668a	0.032812633
58	0x3dfb2018	0.12261981
59	0xbc524dcc	-0.012835931
60	0xbddce201	-0.10785294
61	0x3c85166a	0.01624604
62	0xbe13b1f0	-0.14423347
63	0xbdc09e11	-0.09405149
64	0xbf1558be	-0.58338535
65	0xbea540b8	-0.3227594
66	0x3e442c26	0.19157466
67	0x3e037862	0.12838891
68	0x3e647788	0.22311223
69	0x3e2154f0	0.15755057
70	0x3e6f08b6	0.23343167
71	0xbd1d8293	-0.038454603
72	0xbde6354f	-0.112406366
73	0xbdec6411	-0.11542524
74	0xbdcab079	-0.09896941
75	0x3cdfc413	0.027315175
76	0xbd0b144c	-0.033954903
77	0xbd6f1703	-0.058371555
78	0x3db1ac3b	0.086754285
79	0xbdeaaf45	-0.11459211
80	0xbd39d007	-0.045364406
81	0x3e23f1a5	0.16010149
82	0x3dc0da38	0.09416622
83	0x3eb5d197	0.35511467
84	0x3e33abd0	0.1754601
85	0x3da1989e	0.078904375
86	0x3d1d1306	0.03834822
87	0xbec3112c	-0.3809904
88	0xbef8ffb9	-0.486326
89	0xbe604c0b	-0.21904008
90	0x3ec628e1	0.38703063
91	0x3e9a9817	0.3019416
92	0x3dca8f5c	0.09890625
93	0x3db4a768	0.08820993
94	0xbda620ad	-0.08111701
95	0xbeade11c	-0.33960807
96	0xbee12425	-0.4397289
97	0xbecb18a0	-0.39667225
98	0xbe4210be	-0.18951699
99	0xbe0dc1f6	-0.13843521
100	0xbd96b58b	-0.07358845
101	0x3eae4cb6	0.340429
102	0x3d18bb0f	0.037287768
103	0xbd4b957d	-0.04970311
104	0x3eae1475	0.33999982
105	0xbf06d9eb	-0.52676266
106	0xbe6c5bf8	-0.23081958
107	0xbca88063	-0.020569032
108	0x3dbdfe18	0.0927698
109	0xbde8ded7	-0.11370628
110	0x3da9a10c	0.082826704
111	0x3d4fc9df	0.05072963
112	0xbd0885c9	-0.033330712
113	0xbcbebfca	-0.023284812
114	0xbdc73976	-0.09727757
115	0x3e407aea	0.18796888
116	0xbe785f99	-0.24255218
117	0xbeb9bcad	-0.3627676
118	0xbe5b0912	-0.21390179
119	0xbd5714cd	-0.05251007
120	0x3e3060b2	0.17224386
121	0x3e8be8a1	0.2732592
122	0x3df7ea1c	0.121052
123	0xbcea1c62	-0.028577987
124	0x3d822fad	0.0635675
125	0xbd2c82fa	-0.042117096
126	0xbe848601	-0.25883487
127	0xbd8db844	-0.069199115
128	0xbdf9e394	-0.1220161
129	0xbda76fa9	-0.08175594
130	0x3e99729d	0.29970255
131	0xbd78767e	-0.060659878
132	0xbe44e96e	-0.19229671
133	0x3e8335f2	0.25627095
134	0xbe3c1d83	-0.18370633
135	0x3b970f41	0.0046099727
136	0x3e1da5c6	0.15395269
137	0x3deb8de8	0.11501676
138	0x3cdfc083	0.027313476
139	0x3c6ae956	0.014337858
140	0xbd94a19f	-0.07257389
141	0x3cee6d5c	0.029104881
142	0x3c91c05d	0.017791921
143	0xbe7aa880	-0.2447834
144	0xbea1c0ef	-0.3159251
145	0xbe0a2f63	-0.13494639
146	0x3d784697	0.060614195
147	0xbe5c5af1	-0.21519066
148	0x3eacd3dd	0.3375539
149	0x3e294834	0.1653145
150	0x3e2cea99	0.16886367
151	0x3e34d339	0.176587
152	0xbe27a1ba	-0.16370288
153	0xbdefa055	-0.11700503
154	0x3ce679da	0.028134275
155	0x3da1f8d7	0.079087906
156	0x3d951d76	0.0728101
157	0xbdae1d50	-0.08501685
158	0x3dd98222	0.10620524
159	0x3cbc94ac	0.023020111
160	0x3cb0b963	0.021572774
161	0xbd92b527	-0.07163458
162	0xbec83a6a	-0.39107066
163	0xbd9e88de	-0.07740949
164	0x3d75a2ab	0.059969585
165	0xbe325cd5	-0.17418225
166	0x3e415da9	0.18883385
167	0xbcf3bb79	-0.02975248
168	0x3e84315d	0.2581891
169	0x3dd6093b	0.10450979
170	0xbe06fffd	-0.1318359
171	0x3e102193	0.14075308
172	0xbea17dce	-0.31541294
173	0xbf14725c	-0.57987
174	0x3eaae36c	0.33376634
175	0x3dedf9ce	0.11619912
176	0xbe768be2	-0.24076799
177	0x3e742ded	0.23845644
178	0x3ead88a2	0.33893305
179	0x3c16e105	0.009208922
180	0x3dcb6c49	0.09932763
181	0xbe801793	-0.25017986
182	0xbea62cd9	-0.3245609
183	0x3d05a7b2	0.03263063
184	0x3e28df1e	0.16491362
185	0xbe809789	-0.25115612
186	0x3e28d592	0.1648772
187	0x3eb78672	0.3584476
188	0x3e03a880	0.12857246
189	0x3da6846e	0.08130728
190	0x3e0990de	0.13434169
191	0xbd8b3202	-0.067966476
192	0xba771977	-0.0009426097
193	0x3e09bd13	0.13451032
194	0x3e028f95	0.12750085
195	0xbd4aea18	-0.049539655
196	0x3d933686	0.07188134
197	0x3d91f931	0.071276076
198	0xbd8f94b8	-0.07010788
199	0xbc2b17e9	-0.010442712
200	0xbc4768d6	-0.012170991
201	0x3da69567	0.08133965
202	0x3e1819a0	0.14853525
203	0x3d35fa51	0.044428173
204	0xbe15e8b5	-0.14639552
205	0x3ca6812b	0.020325264
206	0x3d8933f1	0.0669936
207	0x3e549384	0.20759398
208	0x3e37447a	0.17897215
209	0xbe2b31c3	-0.16718201
210	0x3ec20e9d	0.37901774
211	0x3d417a75	0.047235925
212	0xbef06d65	-0.4695846
213	0x3e83a844	0.25714314
214	0xbe542336	-0.20716557
215	0xbeda9009	-0.42688015
216	0xbea3ef2c	-0.3201841
217	0xbe3cd249	-0.18439592
218	0x3de4c26f	0.11169898
219	0xbedda7a7	-0.4329197
220	0xbcd1b798	-0.02560024
221	0x3eb35d6b	0.3503221
222	0xbde69a9d	-0.11259959
223	0x3dd9a134	0.1062645
224	0x3e1c65fc	0.15273279
225	0xbeb9cb9a	-0.36288148
226	0x3e44e0b0	0.19226336
227	0x3df85296	0.12125127
228	0x3d040444	0.03223063
229	0x3e84575c	0.258479
230	0xbd767059	-0.060165737
231	0x3c20d21f	0.009815722
232	0x3e164469	0.14674534
233	0xbea9b46a	-0.33145458
234	0xbd9c045a	-0.076180175
235	0x3db0acd1	0.08626712
236	0xbed0c16d	-0.40772572
237	0x3b74e8e0	0.003737025
238	0x3d089cab	0.033352535
239	0xbd979fed	-0.0740355
240	0xbda3aed5	-0.07992331
241	0x3e6773b9	0.22602738
242	0x3e543f21	0.20727207
243	0xbcc5fb23	-0.024167603
244	0xbe3408eb	-0.17581527
245	0x3ca3e7c1	0.02000797
246	0x3d29d5d8	0.041463703
247	0x3e6fcee4	0.23418766
248	0x3e4b8939	0.19876565
249	0x3d579adc	0.05263792
250	0xbdc388a9	-0.0954755
251	0xbe7a560c	-0.24446887
252	0x3d113830	0.035453975
253	0xbb96ae5b	-0.0045984215
254	0xbd0cae03	-0.034345638
255	0x3db4b5b5	0.0882372

arith.constant3 f4 [10]
0	0xbc79fdd2	-0.015258269
1	0x3d183b55	0.03716596
2	0xbc8db234	-0.017296888
3	0xbb4745b5	-0.003040654
4	0x3cd51814	0.026012458
5	0xbd01bbe9	-0.031673346
6	0xbdd10c5a	-0.10207434
7	0xbbc72084	-0.006076874
8	0x3e000567	0.12502061
9	0xbd309f1c	-0.04312049

arith.constant4 f4 [128]
0	0xbcf2bf70	-0.0296323
1	0xbbe597cf	-0.0070066224
2	0xbdce0e17	-0.10061281
3	0xbd7422ad	-0.059603382
4	0x3d802f79	0.06259055
5	0xbd3e8fdf	-0.046523925
6	0x3c3bae17	0.0114550805
7	0xbc6e2993	-0.014536279
8	0xbcb42047	-0.021988047
9	0xbcc99f7f	-0.024612186
10	0xbc48e406	-0.012261396
11	0x3b99f188	0.004697982
12	0x3c8296aa	0.015940983
13	0x3cc10a9c	0.02356463
14	0xbb9654b4	-0.004587734
15	0xbd868678	-0.06568617
16	0x3d2a169c	0.04152547
17	0x3bf6fdb3	0.0075375675
18	0x3bd622b7	0.0065349
19	0xbd2b8ae2	-0.041880496
20	0xbc88a9d8	-0.01668255
21	0xbd55c663	-0.05219115
22	0x3cf47884	0.029842623
23	0xbd65f6ae	-0.056143455
24	0xbd2fc99c	-0.04291688
25	0xbc0ddb7b	-0.008658285
26	0x3c6f00f0	0.014587626
27	0x3a990cb2	0.0011676757
28	0xbd69bf8f	-0.05706745
29	0xbd4c18bd	-0.04982828
30	0x3cdcded2	0.026961718
31	0xbbece732	-0.007229709
32	0xba5fbda3	-0.0008535033
33	0x3d0c9abc	0.034327254
34	0xbbd8fc39	-0.006621864
35	0x3d90b37a	0.070654824
36	0xbb42de47	-0.0029734538
37	0xbc6c6dd8	-0.014430486
38	0xbd3d54dd	-0.04622351
39	0xbcefbcde	-0.029264864
40	0xbc017910	-0.007902399
41	0xbbda3919	-0.0066596386
42	0xbcf9488c	-0.0304301
43	0x3b903cfd	0.0044018016
44	0xbc3705a4	-0.011170778
45	0x3d1896be	0.037253134
46	0x3dd6adc7	0.10482364
47	0xbd03baf9	-0.032160733
48	0xbcbefd25	-0.023314068
49	0xbc0ad047	-0.008472509
50	0x3d1b90b8	0.03797981
51	0xbc4362df	-0.011925428
52	0xbd54d356	-0.05195936
53	0x3cb01d2a	0.021498282
54	0xbc5a9580	-0.013341308
55	0x3c54d9a8	0.012991346
56	0x3c1c6466	0.009545421
57	0xbd088b35	-0.033335883
58	0x3c9e1d03	0.019300943
59	0xbd0534c5	-0.032521028
60	0xbdba43a7	-0.09094935
61	0xbc9362fc	-0.017991535
62	0xbda9aa53	-0.0828444
63	0x3c46203e	0.012092648
64	0xbcbc8b72	-0.023015711
65	0xbc82b4b9	-0.015955316
66	0xbd07dd4f	-0.03317004
67	0x3d98460b	0.07435235
68	0x3bf78153	0.0075532584
69	0xbd861d9a	-0.06548615
70	0xbd755444	-0.059894815
71	0xbc84c295	-0.016206065
72	0x3d0a882e	0.033821277
73	0x3c2277f5	0.009916295
74	0xbd8d67a5	-0.06904534
75	0xbd296377	-0.041354623
76	0xbd2259cd	-0.039636422
77	0xbc9fef4d	-0.019523287
78	0xbdbb8b56	-0.091574356
79	0xbdb84cd0	-0.08999026
80	0xbb9b5435	-0.004740263
81	0x3c3d886b	0.011568169
82	0xbcf4ff90	-0.029907018
83	0xbc185e5b	-0.00929984
84	0xbc08ded5	-0.008353909
85	0xbd7d6d2b	-0.06187169
86	0x3d539767	0.05165806
87	0x3c2e5f65	0.010642861
88	0xbd5eb443	-0.05437113
89	0xbb973d16	-0.0046154363
90	0xbdabe5c1	-0.083934315
91	0xbd05312b	-0.032517593
92	0xbcd763bd	-0.026292676
93	0xbccfbe15	-0.025359193
94	0xbd510a6e	-0.051035337
95	0xbc37d5a4	-0.0112203695
96	0xbc1a5f4b	-0.009422134
97	0x3d37838e	0.044803195
98	0xbcd1ff24	-0.025634356
99	0x3cd7484b	0.02627959
100	0xbdb112bb	-0.08646151
101	0xbdedb0f0	-0.11606014
102	0xbd27320c	-0.040819213
103	0xbd07141d	-0.032978166
104	0xbd4c9847	-0.04994991
105	0xbb5e8f58	-0.0033959951
106	0xbbea7290	-0.00715477
107	0xbd8511a4	-0.06497505
108	0xbd9ec94e	-0.077532396
109	0x3bb15131	0.00541129
110	0x3d4e909b	0.050430875
111	0xbd7876c2	-0.06066013
112	0xbc53b531	-0.012921617
113	0xbc836b8f	-0.016042499
114	0x3ce83ea8	0.02835019
115	0xbc52ac86	-0.012858516
116	0xbbebb0ca	-0.0071927058
117	0xbcbbd70b	-0.022929689
118	0xbd30bffb	-0.043151837
119	0xbc69cc4c	-0.0142699
120	0x3d5dc93e	0.054146998
121	0xbd1e4625	-0.038641114
122	0xbb85cb31	-0.00408306
123	0xbd13e2ad	-0.036104847
124	0xbd9f8fea	-0.07791121
125	0xbc853084	-0.016258486
126	0x3d04fe10	0.032468855
127	0xbd5dc55f	-0.054143306

arith.constant5 f4 [64]
0	0xbd42d286	-0.047564052
1	0xbdd40d70	-0.103541255
2	0xbcb5c4e5	-0.022188613
3	0xbe06cb49	-0.13163485
4	0xbd17f145	-0.037095327
5	0xbe45b866	-0.19308624
6	0xbca41cba	-0.02003323
7	0xbe5706cb	-0.20998685
8	0x3d7798c3	0.06044842
9	0xbe10c452	-0.1413739
10	0xbd877017	-0.06613176
11	0xbe5cc41d	-0.21559186
12	0xbd9378bd	-0.072007634
13	0xbe06c5db	-0.13161413
14	0xbcbafb14	-0.022824802
15	0xbd692c4e	-0.056927018
16	0xbd3b2437	-0.045688834
17	0xbe40caee	-0.18827412
18	0xbda981ad	-0.08276687
19	0xbd30bf05	-0.04315092
20	0xbd67799a	-0.056512453
21	0xbe24c8b1	-0.16092183
22	0xbdbbb342	-0.0916505
23	0xbd13f2df	-0.03612029
24	0xbe0dc228	-0.13843596
25	0xbde92fba	-0.11386056
26	0xbdf91069	-0.12161333
27	0xbd641ba2	-0.055690415
28	0xbdb2cb79	-0.087302156
29	0xbd9198d1	-0.071092255
30	0xbd8eae5c	-0.0696685
31	0xbe525ff9	-0.20544423
32	0xbe026fe7	-0.12738
33	0xbbca8a35	-0.0061810263
34	0xbd527df1	-0.05138964
35	0xbd9673a1	-0.07346273
36	0xbd1036ed	-0.03520863
37	0xbd348e34	-0.044080928
38	0xbdc9c0b8	-0.09851211
39	0xbe0418a1	-0.1290002
40	0xbd299f2c	-0.041411564
41	0xbce92108	-0.028458133
42	0xbdadc3a7	-0.08484583
43	0xbe78378e	-0.24239942
44	0xbdac0001	-0.08398438
45	0xbe093ab5	-0.13401301
46	0x3d38eb74	0.04514642
47	0xbe1e9395	-0.15485986
48	0xbdb1d550	-0.08683264
49	0xbd8e9f0e	-0.06963931
50	0xbd84e185	-0.06488327
51	0xbdd347ec	-0.103164524
52	0xbe4403e3	-0.19142108
53	0xbd26b038	-0.0406954
54	0xbe23e91a	-0.1600689
55	0xbe19ac7d	-0.15007205
56	0xbd5667b3	-0.05234499
57	0xbda9563c	-0.08268401
58	0xbd87ed8e	-0.06637107
59	0xbe298b9d	-0.16557164
60	0xbe0b9230	-0.13629985
61	0xbd4dea8f	-0.05027252
62	0x3becc52e	0.007225654
63	0xbe688f37	-0.22710882

tfl.pseudo_qconst i1 [64, 3, 3, 32]
0	0x25	37
1	0xb5	-75
2	0xf8	-8
3	0x11	17
4	0x0c	12
5	0x07	7
6	0x0e	14
7	0xfe	-2
8	0x28	40
9	0x81	-127
10	0xbf	-65
11	0x9d	-99
12	0x00	0
13	0x0e	14
14	0x39	57
15	0x18	24
16	0x03	3
17	0x08	8
18	0x38	56
19	0x24	36
20	0x3d	61
21	0x2e	46
22	0x0e	14
23	0xfa	-6
24	0xeb	-21
25	0x22	34
26	0x4b	75
27	0xe4	-28
28	0x24	36
29	0x08	8
30	0xed	-19
31	0x1b	27
32	0x06	6
33	0xe7	-25
34	0x08	8
35	0x8b	-117
36	0xd4	-44
37	0xee	-18
38	0xe5	-27
39	0xf9	-7
40	0x1c	28
41	0xc7	-57
42	0xd9	-39
43	0xa4	-92
44	0xfb	-5
45	0xb2	-78
46	0xa9	-87
47	0xfa	-6
48	0xac	-84
49	0xdf	-33
50	0xdc	-36
51	0x1c	28
52	0xf7	-9
53	0xf6	-10
54	0xe2	-30
55	0x00	0
56	0x97	-105
57	0xd1	-47
58	0xad	-83
59	0xf9	-7
60	0x0c	12
61	0xf3	-13
62	0xd9	-39
63	0xeb	-21
64	0x08	8
65	0xc3	-61
66	0xaf	-81
67	0x11	17
68	0x1a	26
69	0xdc	-36
70	0xb4	-76
71	0xe9	-23
72	0xf0	-16
73	0xc1	-63
74	0xf1	-15
75	0xd8	-40
76	0xb2	-78
77	0x23	35
78	0xf2	-14
79	0x93	-109
80	0x15	21
81	0xe7	-25
82	0x06	6
83	0x06	6
84	0x14	20
85	0xc8	-56
86	0xd0	-48
87	0xf7	-9
88	0x0b	11
89	0x9b	-101
90	0xf7	-9
91	0xd2	-46
92	0xfb	-5
93	0xb5	-75
94	0xe1	-31
95	0xe6	-26
96	0x1b	27
97	0xda	-38
98	0x18	24
99	0xec	-20
100	0xf8	-8
101	0x05	5
102	0x20	32
103	0xf9	-7
104	0x18	24
105	0x08	8
106	0x18	24
107	0xae	-82
108	0xee	-18
109	0x1c	28
110	0x29	41
111	0x20	32
112	0x2c	44
113	0x08	8
114	0x15	21
115	0x17	23
116	0xf0	-16
117	0x0c	12
118	0xf5	-11
119	0x34	52
120	0xf7	-9
121	0x42	66
122	0xee	-18
123	0x3a	58
124	0x14	20
125	0x1a	26
126	0xdf	-33
127	0xf4	-12
128	0x2c	44
129	0xfa	-6
130	0xcc	-52
131	0x0c	12
132	0x14	20
133	0xdb	-37
134	0xfb	-5
135	0x02	2
136	0xf3	-13
137	0x0a	10
138	0x34	52
139	0xd9	-39
140	0xef	-17
141	0x0e	14
142	0xbf	-65
143	0xe4	-28
144	0xb0	-80
145	0xeb	-21
146	0xcb	-53
147	0x30	48
148	0x05	5
149	0x97	-105
150	0x8b	-117
151	0x3a	58
152	0x05	5
153	0xc1	-63
154	0xd2	-46
155	0xf4	-12
156	0x17	23
157	0xfd	-3
158	0xaa	-86
159	0xf7	-9
160	0x9e	-98
161	0xbb	-69
162	0xf5	-11
163	0x0e	14
164	0xf2	-14
165	0x05	5
166	0xcb	-53
167	0xf3	-13
168	0xd0	-48
169	0x8c	-116
170	0xec	-20
171	0xed	-19
172	0xc8	-56
173	0xe5	-27
174	0xdb	-37
175	0xdb	-37
176	0xe2	-30
177	0xfb	-5
178	0xf8	-8
179	0xb8	-72
180	0xdb	-37
181	0x13	19
182	0xe8	-24
183	0x94	-108
184	0xec	-20
185	0x0d	13
186	0x07	7
187	0xd5	-43
188	0x12	18
189	0xc6	-58
190	0xe8	-24
191	0xed	-19
192	0xfb	-5
193	0x06	6
194	0xfb	-5
195	0x9a	-102
196	0xae	-82
197	0xf5	-11
198	0xe1	-31
199	0x9c	-100
200	0xaf	-81
201	0x01	1
202	0x23	35
203	0x91	-111
204	0xdf	-33
205	0xbe	-66
206	0xed	-19
207	0x20	32
208	0xea	-22
209	0xd2	-46
210	0xe5	-27
211	0xd4	-44
212	0xd8	-40
213	0xe2	-30
214	0xb4	-76
215	0x1f	31
216	0xa1	-95
217	0x24	36
218	0xd6	-42
219	0xbf	-65
220	0x14	20
221	0x0c	12
222	0xa8	-88
223	0xe0	-32
224	0xd5	-43
225	0x00	0
226	0xe6	-26
227	0x12	18
228	0x2e	46
229	0xf3	-13
230	0xda	-38
231	0xf9	-7
232	0xda	-38
233	0xc7	-57
234	0x07	7
235	0xf1	-15
236	0xe2	-30
237	0x06	6
238	0x01	1
239	0xab	-85
240	0xf9	-7
241	0xd8	-40
242	0xf8	-8
243	0xdf	-33
244	0xff	-1
245	0xeb	-21
246	0x0a	10
247	0xa8	-88
248	0x05	5
249	0x0f	15
250	0xfc	-4
251	0xd8	-40
252	0xf2	-14
253	0xbf	-65
254	0xd6	-42
255	0x0a	10

tfl.pseudo_qconst1 i1 [10, 128]
0	0xcb	-53
1	0xcf	-49
2	0x98	-104
3	0xe8	-24
4	0x0b	11
5	0x28	40
6	0x14	20
7	0x05	5
8	0x30	48
9	0xd3	-45
10	0x1f	31
11	0xdb	-37
12	0x0c	12
13	0xbf	-65
14	0xd0	-48
15	0xed	-19
16	0xa2	-94
17	0x13	19
18	0xd6	-42
19	0x10	16
20	0xef	-17
21	0x15	21
22	0x39	57
23	0xc6	-58
24	0x16	22
25	0x09	9
26	0x25	37
27	0x05	5
28	0x16	22
29	0x2d	45
30	0xec	-20
31	0xd6	-42
32	0xd1	-47
33	0xd0	-48
34	0xde	-34
35	0xc8	-56
36	0x1b	27
37	0xf2	-14
38	0xf7	-9
39	0x0f	15
40	0xf5	-11
41	0x0b	11
42	0x22	34
43	0x38	56
44	0xe6	-26
45	0xe1	-31
46	0x36	54
47	0xe3	-29
48	0xe1	-31
49	0x12	18
50	0x35	53
51	0x12	18
52	0x1b	27
53	0x35	53
54	0x01	1
55	0x03	3
56	0x3a	58
57	0xfc	-4
58	0xb9	-71
59	0x07	7
60	0xf9	-7
61	0xd6	-42
62	0xc8	-56
63	0x97	-105
64	0xda	-38
65	0xea	-22
66	0xfd	-3
67	0x1d	29
68	0xed	-19
69	0x1c	28
70	0x0c	12
71	0xdc	-36
72	0xd1	-47
73	0x33	51
74	0xfa	-6
75	0x0d	13
76	0xb8	-72
77	0x2b	43
78	0x98	-104
79	0xd3	-45
80	0x28	40
81	0x03	3
82	0xe1	-31
83	0xd3	-45
84	0x9a	-102
85	0xcd	-51
86	0x05	5
87	0xf4	-12
88	0xc4	-60
89	0x24	36
90	0xfc	-4
91	0x81	-127
92	0xf6	-10
93	0x1b	27
94	0xd5	-43
95	0x0e	14
96	0x00	0
97	0x23	35
98	0xe8	-24
99	0x24	36
100	0x06	6
101	0xcf	-49
102	0xfc	-4
103	0x40	64
104	0x32	50
105	0x26	38
106	0xf8	-8
107	0xcb	-53
108	0xd7	-41
109	0xed	-19
110	0xbc	-68
111	0x0e	14
112	0xed	-19
113	0xad	-83
114	0x32	50
115	0xee	-18
116	0xf3	-13
117	0x26	38
118	0xae	-82
119	0xfd	-3
120	0x1a	26
121	0x11	17
122	0xef	-17
123	0x13	19
124	0xba	-70
125	0x26	38
126	0x27	39
127	0x17	23
128	0x30	48
129	0xcc	-52
130	0xf2	-14
131	0x2c	44
132	0xf1	-15
133	0xff	-1
134	0x13	19
135	0x24	36
136	0x0c	12
137	0xfc	-4
138	0x93	-109
139	0x24	36
140	0xf4	-12
141	0x29	41
142	0x17	23
143	0xf3	-13
144	0x10	16
145	0xe7	-25
146	0xfe	-2
147	0xd1	-47
148	0xf9	-7
149	0xe4	-28
150	0x26	38
151	0xd2	-46
152	0x0f	15
153	0x02	2
154	0xde	-34
155	0x25	37
156	0x02	2
157	0xdc	-36
158	0x09	9
159	0xd9	-39
160	0x7f	127
161	0x1c	28
162	0x17	23
163	0x21	33
164	0x19	25
165	0xe0	-32
166	0xd5	-43
167	0xff	-1
168	0x1f	31
169	0xe3	-29
170	0x22	34
171	0xe7	-25
172	0x02	2
173	0xd4	-44
174	0x11	17
175	0xfb	-5
176	0xf9	-7
177	0x12	18
178	0xf7	-9
179	0xea	-22
180	0x3b	59
181	0xa0	-96
182	0xf4	-12
183	0x40	64
184	0xe7	-25
185	0xb5	-75
186	0x0e	14
187	0xe7	-25
188	0x2d	45
189	0x0f	15
190	0xc6	-58
191	0x21	33
192	0x20	32
193	0x02	2
194	0xe0	-32
195	0x25	37
196	0x06	6
197	0xe5	-27
198	0x29	41
199	0xee	-18
200	0xec	-20
201	0x0a	10
202	0xea	-22
203	0xa8	-88
204	0xfa	-6
205	0xf3	-13
206	0xaf	-81
207	0x22	34
208	0x09	9
209	0xd8	-40
210	0xed	-19
211	0xd4	-44
212	0xdd	-35
213	0x31	49
214	0x2e	46
215	0xe6	-26
216	0xfd	-3
217	0x18	24
218	0x2d	45
219	0x59	89
220	0xac	-84
221	0x05	5
222	0xbf	-65
223	0x03	3
224	0x04	4
225	0x29	41
226	0xec	-20
227	0xd1	-47
228	0xce	-50
229	0x17	23
230	0x9d	-99
231	0xdf	-33
232	0x1e	30
233	0xc9	-55
234	0xdc	-36
235	0xf9	-7
236	0x2d	45
237	0xf9	-7
238	0x2a	42
239	0xc7	-57
240	0x21	33
241	0xd2	-46
242	0x1c	28
243	0xf1	-15
244	0xea	-22
245	0xa1	-95
246	0x0f	15
247	0xd8	-40
248	0xfd	-3
249	0x48	72
250	0xec	-20
251	0xe6	-26
252	0x17	23
253	0xd5	-43
254	0x1a	26
255	0x1d	29

tfl.pseudo_qconst2 i1 [128, 1600]
0	0xd8	-40
1	0x27	39
2	0x06	6
3	0x24	36
4	0x05	5
5	0xff	-1
6	0xea	-22
7	0xfb	-5
8	0x25	37
9	0x36	54
10	0x00	0
11	0x29	41
12	0xdd	-35
13	0x03	3
14	0x0a	10
15	0x14	20
16	0x3c	60
17	0x35	53
18	0x15	21
19	0x0c	12
20	0xf1	-15
21	0x30	48
22	0xd9	-39
23	0x0e	14
24	0x42	66
25	0x2c	44
26	0x13	19
27	0xfd	-3
28	0x21	33
29	0x1b	27
30	0x10	16
31	0x10	16
32	0xfd	-3
33	0x16	22
34	0x0b	11
35	0xf6	-10
36	0x18	24
37	0x1e	30
38	0xed	-19
39	0x25	37
40	0x20	32
41	0x1a	26
42	0x41	65
43	0xfe	-2
44	0x2a	42
45	0x16	22
46	0x3f	63
47	0x08	8
48	0xf9	-7
49	0x19	25
50	0x07	7
51	0x57	87
52	0xff	-1
53	0x2e	46
54	0x11	17
55	0x17	23
56	0x0f	15
57	0x11	17
58	0x02	2
59	0x2f	47
60	0x30	48
61	0xe2	-30
62	0xf0	-16
63	0x04	4
64	0xf7	-9
65	0x1f	31
66	0x17	23
67	0x0a	10
68	0x06	6
69	0xff	-1
70	0xf2	-14
71	0x36	54
72	0x0f	15
73	0x3d	61
74	0xfb	-5
75	0x1e	30
76	0x23	35
77	0xf8	-8
78	0x03	3
79	0x41	65
80	0x7c	124
81	0x0e	14
82	0xf7	-9
83	0xe0	-32
84	0x2d	45
85	0xff	-1
86	0xda	-38
87	0x1b	27
88	0x07	7
89	0x1a	26
90	0x44	68
91	0xf6	-10
92	0xfb	-5
93	0x28	40
94	0x2a	42
95	0x19	25
96	0x17	23
97	0x0e	14
98	0xf3	-13
99	0xfd	-3
100	0x06	6
101	0x32	50
102	0x0f	15
103	0xfa	-6
104	0x1d	29
105	0x01	1
106	0x04	4
107	0xfb	-5
108	0x23	35
109	0x42	66
110	0x1f	31
111	0xfc	-4
112	0xdf	-33
113	0x29	41
114	0xe2	-30
115	0x3d	61
116	0x1b	27
117	0x30	48
118	0x11	17
119	0xf7	-9
120	0x08	8
121	0x16	22
122	0x13	19
123	0x22	34
124	0xfa	-6
125	0x1d	29
126	0x27	39
127	0xfb	-5
128	0x0f	15
129	0x07	7
130	0xeb	-21
131	0x23	35
132	0x2c	44
133	0x06	6
134	0xe9	-23
135	0x20	32
136	0xf2	-14
137	0xf3	-13
138	0xf3	-13
139	0x04	4
140	0x33	51
141	0xe8	-24
142	0xf6	-10
143	0x33	51
144	0x2e	46
145	0xef	-17
146	0xeb	-21
147	0xe3	-29
148	0x1e	30
149	0xf7	-9
150	0xd4	-44
151	0xf5	-11
152	0xf7	-9
153	0x0b	11
154	0x27	39
155	0xcb	-53
156	0xff	-1
157	0x17	23
158	0x0f	15
159	0x26	38
160	0x16	22
161	0xd4	-44
162	0xf9	-7
163	0xf9	-7
164	0x04	4
165	0x1c	28
166	0xf8	-8
167	0x03	3
168	0x51	81
169	0x3a	58
170	0xfd	-3
171	0x18	24
172	0x15	21
173	0x21	33
174	0x3a	58
175	0xf6	-10
176	0xe3	-29
177	0xd2	-46
178	0x02	2
179	0x0c	12
180	0x25	37
181	0x21	33
182	0xf9	-7
183	0x07	7
184	0xf7	-9
185	0xe6	-26
186	0x02	2
187	0x11	17
188	0xd9	-39
189	0xfd	-3
190	0x25	37
191	0x05	5
192	0x0b	11
193	0xfc	-4
194	0x08	8
195	0x22	34
196	0xec	-20
197	0x0a	10
198	0xdd	-35
199	0x20	32
200	0xf8	-8
201	0x2c	44
202	0xf4	-12
203	0xec	-20
204	0x2c	44
205	0x1b	27
206	0xfb	-5
207	0x15	21
208	0x1b	27
209	0xf0	-16
210	0xe5	-27
211	0xf2	-14
212	0x2d	45
213	0x05	5
214	0xd9	-39
215	0x02	2
216	0x0d	13
217	0x1a	26
218	0x1b	27
219	0x0b	11
220	0x0c	12
221	0xf9	-7
222	0xe7	-25
223	0xfa	-6
224	0x07	7
225	0xfd	-3
226	0x04	4
227	0xe9	-23
228	0xe1	-31
229	0xf1	-15
230	0x10	16
231	0xfc	-4
232	0x13	19
233	0xfb	-5
234	0x0a	10
235	0x2b	43
236	0xf7	-9
237	0x2f	47
238	0x19	25
239	0xff	-1
240	0xf5	-11
241	0xd1	-47
242	0xda	-38
243	0x0c	12
244	0x1e	30
245	0x06	6
246	0x13	19
247	0x12	18
248	0xf5	-11
249	0xe8	-24
250	0x04	4
251	0xe9	-23
252	0xf3	-13
253	0x18	24
254	0x0a	10
255	0xee	-18
